models/LSTM/LSTM-int8.tflite (tflite, 824104 bytes, 11 tensors)

model/batch_normalization_1/batchnorm/mul_1;model/batch_normalization_1/batchnorm/add_1;model/output_head_trauma/MatMul;model/output_head_trauma/BiasAdd i1 [1, 256] scale=0.002118725 zero_point=0
000000 4f 97 df 8e de bb ba 02 5d 78 d6 ea cb 2d d7 2a
       0.16737929 -0.22246614 -0.069917925 -0.24153467 -0.072036654 -0.14619203 -0.14831075 0.00423745 0.19704144 0.254247 -0.08898646 -0.046611954 -0.11229243 0.09534263 -0.08686773 0.08898646
000010 a3 de c4 98 90 79 b3 62 51 12 f8 b8 2e 39 fe c0
       -0.19704144 -0.072036654 -0.1271235 -0.2203474 -0.2372972 0.25636575 -0.16314183 0.20763506 0.17161673 0.038137052 -0.0169498 -0.15254821 0.09746136 0.12076733 -0.00423745 -0.1355984
000020 6a 1e 12 02 30 a9 b9 59 4d a3 f1 7d 34 a6 32 14
       0.22458486 0.06356175 0.038137052 0.00423745 0.1016988 -0.18432908 -0.15042949 0.18856654 0.16314183 -0.19704144 -0.031780876 0.26484063 0.1101737 -0.19068526 0.10593625 0.042374503
000030 71 86 db 0c 1f 92 18 b8 f4 82 ba 9f 05 14 bf 29
       0.23941593 -0.25848445 -0.078392826 0.0254247 0.06568048 -0.23305976 0.0508494 -0.15254821 -0.0254247 -0.26695937 -0.14831075 -0.20551634 0.010593626 0.042374503 -0.13771713 0.08686773
000040 b8 8e 35 c3 13 c0 1a 67 25 b9 82 13 f6 5d 4c 08
       -0.15254821 -0.24153467 0.11229243 -0.12924223 0.040255778 -0.1355984 0.05508685 0.21822868 0.078392826 -0.15042949 -0.26695937 0.040255778 -0.021187251 0.19704144 0.16102311 0.0169498
000050 4d 41 22 3f 51 f5 8d b8 cf a2 95 ed 17 c4 c3 01
       0.16314183 0.13771713 0.072036654 0.13347968 0.17161673 -0.023305977 -0.24365339 -0.15254821 -0.10381753 -0.19916016 -0.22670358 -0.040255778 0.04873068 -0.1271235 -0.12924223 0.002118725
000060 bc cc 41 60 95 5c 02 c8 57 59 40 f8 1d 6b a3 7f
       -0.14407331 -0.1101737 0.13771713 0.2033976 -0.22670358 0.19492272 0.00423745 -0.1186486 0.18432908 0.18856654 0.1355984 -0.0169498 0.061443027 0.22670358 -0.19704144 0.26907808
000070 20 2d 27 9b a9 16 22 ca 87 16 76 1c df 45 90 1f
       0.0677992 0.09534263 0.08263028 -0.21399124 -0.18432908 0.046611954 0.072036654 -0.11441115 -0.25636575 0.046611954 0.25000957 0.0593243 -0.069917925 0.14619203 -0.2372972 0.06568048
000080 e2 c6 51 43 71 8f a1 e0 93 b6 f4 bc 1b 02 19 c6
       -0.06356175 -0.122886054 0.17161673 0.14195459 0.23941593 -0.23941593 -0.20127888 -0.0677992 -0.23094104 -0.15678565 -0.0254247 -0.14407331 0.057205576 0.00423745 0.052968126 -0.122886054
000090 cc e8 11 be 9b 20 0e 9e a4 db 07 bb fa ae 35 a5
       -0.1101737 -0.0508494 0.036018327 -0.13983585 -0.21399124 0.0677992 0.02966215 -0.20763506 -0.19492272 -0.078392826 0.014831075 -0.14619203 -0.01271235 -0.17373545 0.11229243 -0.19280398
0000a0 8b 2f 2d 3a eb 08 2c f0 21 cb 8f 13 de 36 5f a9
       -0.24789083 0.09958008 0.09534263 0.122886054 -0.04449323 0.0169498 0.09322391 -0.0338996 0.069917925 -0.11229243 -0.23941593 0.040255778 -0.072036654 0.11441115 0.20127888 -0.18432908
0000b0 0b 0b 2a 63 70 b3 a8 2f 4b a1 34 ea cc 98 a3 15
       0.023305977 0.023305977 0.08898646 0.20975378 0.2372972 -0.16314183 -0.18644781 0.09958008 0.15890439 -0.20127888 0.1101737 -0.046611954 -0.1101737 -0.2203474 -0.19704144 0.04449323
0000c0 94 46 5e 4b ad 05 2e b8 b5 41 48 cb 0b ed 99 f6
       -0.2288223 0.14831075 0.19916016 0.15890439 -0.17585418 0.010593626 0.09746136 -0.15254821 -0.15890439 0.13771713 0.15254821 -0.11229243 0.023305977 -0.040255778 -0.21822868 -0.021187251
0000d0 fe 2b 67 15 52 4b a5 7b 6d 69 8e a2 e2 58 5d 9f
       -0.00423745 0.09110518 0.21822868 0.04449323 0.17373545 0.15890439 -0.19280398 0.2606032 0.23094104 0.22246614 -0.24153467 -0.19916016 -0.06356175 0.18644781 0.19704144 -0.20551634
0000e0 03 e9 39 41 b7 73 b6 7a 57 4b e9 64 94 01 f8 7a
       0.006356175 -0.04873068 0.12076733 0.13771713 -0.15466693 0.24365339 -0.15678565 0.25848445 0.18432908 0.15890439 -0.04873068 0.2118725 -0.2288223 0.002118725 -0.0169498 0.25848445
0000f0 64 d2 30 ad 69 be 96 2c d5 91 1b b8 b1 37 7b 7b
       0.2118725 -0.09746136 0.1016988 -0.17585418 0.22246614 -0.13983585 -0.22458486 0.09322391 -0.09110518 -0.23517849 0.057205576 -0.15254821 -0.16737929 0.11652988 0.2606032 0.2606032

model/batch_normalization_1/batchnorm/mul_1;model/batch_normalization_1/batchnorm/add_1;model/output_fall_type/MatMul;model/output_fall_type/BiasAdd i1 [3, 256] scale=0.002187424 zero_point=0
000000 01 db a3 a1 ad 57 44 61 20 f5 d2 b9 19 bd 53 43
       0.002187424 -0.08093469 -0.20343044 -0.20780529 -0.1815562 0.1903059 0.14874484 0.21218014 0.06999757 -0.024061665 -0.10062151 -0.15530711 0.054685604 -0.14655742 0.1815562 0.14655742
000010 a6 c4 5b a7 2c 72 df e1 ad e6 4a a9 22 7b 2a e0
       -0.19686817 -0.13124545 0.1990556 -0.19468075 0.09624666 0.24936634 -0.072184995 -0.06781015 -0.1815562 -0.056873027 0.16186938 -0.1903059 0.07437242 0.26905316 0.09187181 -0.06999757
000020 b1 37 08 5e 32 91 f4 dd bb 74 34 b0 ef c4 5e 45
       -0.1728065 0.120308325 0.017499393 0.20561786 0.10937121 -0.24280408 -0.026249088 -0.07655984 -0.15093227 0.2537412 0.113746054 -0.17499393 -0.03718621 -0.13124545 0.20561786 0.15093227
000030 e2 b1 e7 a6 43 08 64 d8 e0 f6 42 4f 4b b9 6b f0
       -0.065622725 -0.1728065 -0.054685604 -0.19686817 0.14655742 0.017499393 0.21874242 -0.087496966 -0.06999757 -0.021874242 0.14436999 0.1728065 0.16405681 -0.15530711 0.23405439 -0.034998786
000040 31 be ee 57 59 a1 09 a7 d1 4b a7 af f6 d0 2c 1d
       0.107183784 -0.14436999 -0.039373633 0.1903059 0.19468075 -0.20780529 0.019686816 -0.19468075 -0.10280893 0.16405681 -0.19468075 -0.17718135 -0.021874242 -0.10499635 0.09624666 0.0634353
000050 93 cf f9 31 ea 48 fb cb b9 9b da 06 27 40 6b 37
       -0.23842923 -0.107183784 -0.0153119685 0.107183784 -0.04812333 0.15749453 -0.010937121 -0.11593348 -0.15530711 -0.22092983 -0.08312212 0.013124544 0.08530954 0.13999514 0.23405439 0.120308325
000060 38 e1 fe 9c 70 65 22 85 50 f6 d4 35 d1 cb 55 95
       0.12249575 -0.06781015 -0.004374848 -0.21874242 0.2449915 0.22092983 0.07437242 -0.26905316 0.17499393 -0.021874242 -0.09624666 0.11593348 -0.10280893 -0.11593348 0.18593104 -0.23405439
000070 b4 44 a8 08 cc d0 04 3e c4 e2 5d d5 a6 3e 58 b9
       -0.16624424 0.14874484 -0.19249332 0.017499393 -0.113746054 -0.10499635 0.008749696 0.1356203 -0.13124545 -0.065622725 0.20343044 -0.09405924 -0.19686817 0.1356203 0.19249332 -0.15530711
000080 cd 90 d1 e4 1f d2 ed 1b 03 37 08 47 ac df 5b aa
       -0.11155863 -0.2449915 -0.10280893 -0.061247874 0.06781015 -0.10062151 -0.04156106 0.05906045 0.006562272 0.120308325 0.017499393 0.15530711 -0.18374363 -0.072184995 0.1990556 -0.18811847
000090 5a 89 b5 31 1d 7a 92 1e d9 33 ea 2a 64 e1 f7 a0
       0.19686817 -0.26030347 -0.16405681 0.107183784 0.0634353 0.26686573 -0.24061665 0.065622725 -0.08530954 0.11155863 -0.04812333 0.09187181 0.21874242 -0.06781015 -0.019686816 -0.2099927
0000a0 27 cc 0b 41 c0 ef 31 ff b5 ae a0 eb 98 44 aa 8f
       0.08530954 -0.113746054 0.024061665 0.14218257 -0.13999514 -0.03718621 0.107183784 -0.002187424 -0.16405681 -0.17936878 -0.2099927 -0.045935906 -0.22749211 0.14874484 -0.18811847 -0.24717893
0000b0 53 fe 58 aa f0 b4 30 0a cb 38 af 29 6c d1 6a f0
       0.1815562 -0.004374848 0.19249332 -0.18811847 -0.034998786 -0.16624424 0.10499635 0.021874242 -0.11593348 0.12249575 -0.17718135 0.08968439 0.2362418 -0.10280893 0.23186696 -0.034998786
0000c0 f3 fe 07 d9 aa a7 04 12 92 2b be 3d f7 3f 4a b0
       -0.028436514 -0.004374848 0.0153119685 -0.08530954 -0.18811847 -0.19468075 0.008749696 0.039373633 -0.24061665 0.09405924 -0.14436999 0.13343287 -0.019686816 0.13780771 0.16186938 -0.17499393
0000d0 db d4 95 95 e4 ca 0d 8b 89 cf 1d 19 90 4c 8f f8
       -0.08093469 -0.09624666 -0.23405439 -0.23405439 -0.061247874 -0.1181209 0.028436514 -0.2559286 -0.26030347 -0.107183784 0.0634353 0.054685604 -0.2449915 0.16624424 -0.24717893 -0.017499393
0000e0 88 9e bd 58 97 b5 27 e3 d9 d0 e0 ef 6d d1 a3 ed
       -0.2624909 -0.21436757 -0.14655742 0.19249332 -0.22967952 -0.16405681 0.08530954 -0.0634353 -0.08530954 -0.10499635 -0.06999757 -0.03718621 0.23842923 -0.10280893 -0.20343044 -0.04156106
0000f0 6f 57 d1 f6 15 22 f5 a6 f4 fc bf 54 26 4f f6 a9
       0.24280408 0.1903059 -0.10280893 -0.021874242 0.045935906 0.07437242 -0.024061665 -0.19686817 -0.026249088 -0.008749696 -0.14218257 0.18374363 0.08312212 0.1728065 -0.021874242 -0.1903059

model/batch_normalization_1/batchnorm/mul_1;model/batch_normalization_1/batchnorm/add_1;model/output_fall/MatMul;model/output_fall/BiasAdd i1 [1, 256] scale=0.0020843232 zero_point=0
000000 ae 68 3c cf f9 94 6b c4 0d 2b d1 1d 28 ec 95 31
       -0.1709145 0.2167696 0.1250594 -0.102131836 -0.014590262 -0.22510691 0.22302258 -0.1250594 0.0270962 0.089625895 -0.09796319 0.060445372 0.08337293 -0.041686464 -0.22302258 0.102131836
000010 bb 86 c2 99 fc cd 91 01 39 1b 9f bd 88 e6 b1 ee
       -0.1438183 -0.25428742 -0.12922804 -0.21468529 -0.008337293 -0.10630048 -0.23135987 0.0020843232 0.11880642 0.056276727 -0.20217936 -0.13964966 -0.2501188 -0.0541924 -0.16466153 -0.037517816
000020 46 0e 88 f5 06 a6 93 5b 65 ff 25 92 01 35 60 f3
       0.14590262 0.029180525 -0.2501188 -0.022927556 0.012505939 -0.1875891 -0.22719122 0.18967341 0.21051665 -0.0020843232 0.07711996 -0.22927555 0.0020843232 0.11046913 0.20009503 -0.0270962
000030 37 dd 15 33 e0 3d a4 f8 42 e2 76 ae ab b3 5f 96
       0.11463778 -0.07295131 0.043770786 0.10630048 -0.06669834 0.12714371 -0.19175774 -0.016674586 0.13756533 -0.0625297 0.24595013 -0.1709145 -0.17716748 -0.16049288 0.1980107 -0.22093827
000040 87 a3 ba 08 ea 25 e7 64 79 07 bd 42 26 5b 13 75
       -0.2522031 -0.19384205 -0.14590262 0.016674586 -0.045855112 0.07711996 -0.05210808 0.20843232 0.2522031 0.014590262 -0.13964966 0.13756533 0.07920428 0.18967341 0.03960214 0.24386582
000050 9b f3 6a b3 0f 20 7f 2d e3 07 1c df e8 d8 58 1e
       -0.21051665 -0.0270962 0.22093827 -0.16049288 0.03126485 0.06669834 0.26470906 0.09379455 -0.060445372 0.014590262 0.05836105 -0.068782665 -0.050023757 -0.08337293 0.18342045 0.0625297
000060 33 15 b6 f1 16 f2 44 23 e1 b9 b5 e2 c7 6b e2 11
       0.10630048 0.043770786 -0.15423992 -0.03126485 0.045855112 -0.029180525 0.14173397 0.07295131 -0.06461402 -0.14798695 -0.15632424 -0.0625297 -0.11880642 0.22302258 -0.0625297 0.035433494
000070 f7 97 d1 29 3d e9 f5 97 cf 59 9f ee 1a 20 36 8e
       -0.018758908 -0.21885394 -0.09796319 0.08545725 0.12714371 -0.047939435 -0.022927556 -0.21885394 -0.102131836 0.18550476 -0.20217936 -0.037517816 0.0541924 0.06669834 0.112553455 -0.23761284
000080 e6 35 5c 35 33 77 7d 93 5b 48 e9 ee d6 d6 c6 e4
       -0.0541924 0.11046913 0.19175774 0.11046913 0.10630048 0.24803446 0.2605404 -0.22719122 0.18967341 0.15007126 -0.047939435 -0.037517816 -0.08754157 -0.08754157 -0.120890744 -0.05836105
000090 15 ee 3c e9 9c ea 17 cb e7 5f 3a d4 a4 b1 9c d7
       0.043770786 -0.037517816 0.1250594 -0.047939435 -0.20843232 -0.045855112 0.047939435 -0.11046913 -0.05210808 0.1980107 0.120890744 -0.091710225 -0.19175774 -0.16466153 -0.20843232 -0.08545725
0000a0 dd 6b db 63 5e dc 9a 0b fc 1e d7 49 46 f1 09 aa
       -0.07295131 0.22302258 -0.07711996 0.206348 0.19592638 -0.07503563 -0.21260096 0.022927556 -0.008337293 0.0625297 -0.08545725 0.1521556 0.14590262 -0.03126485 0.018758908 -0.17925179
0000b0 a4 90 92 ea 76 72 53 6a 52 74 6d cd 1c 53 6a 77
       -0.19175774 -0.2334442 -0.22927555 -0.045855112 0.24595013 0.23761284 0.17299883 0.22093827 0.1709145 0.24178149 0.22719122 -0.10630048 0.05836105 0.17299883 0.22093827 0.24803446
0000c0 fd 11 76 17 68 a2 00 6a 68 63 0b 7c 10 7b 93 f8
       -0.0062529696 0.035433494 0.24595013 0.047939435 0.2167696 -0.19592638 0.0 0.22093827 0.2167696 0.206348 0.022927556 0.25845608 0.03334917 0.25637177 -0.22719122 -0.016674586
0000d0 53 b5 dc 1f b8 0c 1e a4 76 b9 7e 22 ef 21 bd 38
       0.17299883 -0.15632424 -0.07503563 0.06461402 -0.15007126 0.025011878 0.0625297 -0.19175774 0.24595013 -0.14798695 0.2626247 0.07086699 -0.035433494 0.068782665 -0.13964966 0.1167221
0000e0 96 04 0b 63 06 38 71 48 f7 e0 3b 73 17 e8 3d 1a
       -0.22093827 0.008337293 0.022927556 0.206348 0.012505939 0.1167221 0.23552853 0.15007126 -0.018758908 -0.06669834 0.12297507 0.23969717 0.047939435 -0.050023757 0.12714371 0.0541924
0000f0 36 e5 c5 41 a2 5c 99 38 1f e2 99 db 5f f1 ee 48
       0.112553455 -0.056276727 -0.12297507 0.13548101 -0.19592638 0.19175774 -0.21468529 0.1167221 0.06461402 -0.0625297 -0.21468529 -0.07711996 0.1980107 -0.03126485 -0.037517816 0.15007126

model/batch_normalization/batchnorm/sub i1 [256] scale=0.0013207465 zero_point=5
000000 e9 a8 e2 e1 10 a3 63 c9 21 d5 d6 08 13 ed fb f0
       -0.0369809 -0.12282942 -0.04622613 -0.047546875 0.014528211 -0.12943316 0.12415017 -0.07924479 0.0369809 -0.06339583 -0.062075086 0.0039622393 0.01849045 -0.031697914 -0.013207465 -0.027735677
000010 ab 02 fd e7 19 10 fa f6 30 23 8f c4 d8 19 d3 3b
       -0.11886718 -0.0039622393 -0.010565972 -0.039622396 0.02641493 0.014528211 -0.014528211 -0.019811198 0.0567921 0.039622396 -0.15584809 -0.085848525 -0.05943359 0.02641493 -0.06603733 0.07132031
000020 20 07 fa c3 c1 e4 45 1c 39 8d 1d d8 e6 e8 4e 15
       0.035660155 0.002641493 -0.014528211 -0.08716927 -0.08981076 -0.043584634 0.084527776 0.03037717 0.06867882 -0.15848958 0.031697914 -0.05943359 -0.040943142 -0.038301647 0.09641449 0.021131944
000030 2d f5 d8 fe 59 33 cf ee ba 3c 27 a8 2d d1 1a 1b
       0.05282986 -0.021131944 -0.05943359 -0.009245225 0.11094271 0.06075434 -0.07132031 -0.03037717 -0.09905599 0.07264106 0.04490538 -0.12282942 0.05282986 -0.06867882 0.027735677 0.029056422
000040 0f 50 01 3d 48 04 38 ff 52 f6 ac dc 04 0c 32 04
       0.013207465 0.09905599 -0.005282986 0.0739618 0.08849002 -0.0013207465 0.06735807 -0.0079244785 0.10169748 -0.019811198 -0.11754644 -0.054150607 -0.0013207465 0.009245225 0.05943359 -0.0013207465
000050 1d eb ad 28 ac f3 ea 08 0e 1e f8 19 1f ec f9 d1
       0.031697914 -0.03433941 -0.11622569 0.04622613 -0.11754644 -0.023773437 -0.035660155 0.0039622393 0.011886719 0.033018664 -0.017169705 0.02641493 0.03433941 -0.033018664 -0.015848957 -0.06867882
000060 ff 0c cb e5 d7 e6 0a f4 ef 5a 15 15 31 d0 9f 36
       -0.0079244785 0.009245225 -0.07660329 -0.042263888 -0.06075434 -0.040943142 0.0066037327 -0.02245269 -0.029056422 0.11226345 0.021131944 0.021131944 0.058112845 -0.06999956 -0.13471614 0.06471658
000070 fa 33 54 09 5b ff 0c fd db cf 23 5b e8 15 f2 d1
       -0.014528211 0.06075434 0.104338974 0.005282986 0.1135842 -0.0079244785 0.009245225 -0.010565972 -0.055471353 -0.07132031 0.039622396 0.1135842 -0.038301647 0.021131944 -0.025094183 -0.06867882
000080 2e e2 e5 ed 66 52 fc 26 5f 35 92 dc 25 e9 02 28
       0.054150607 -0.04622613 -0.042263888 -0.031697914 0.1281124 0.10169748 -0.011886719 0.043584634 0.11886718 0.06339583 -0.15188585 -0.054150607 0.042263888 -0.0369809 -0.0039622393 0.04622613
000090 61 05 a0 04 0b 24 0c 33 16 0b b0 08 0d 2f 26 22
       0.12150868 0.0 -0.13339539 -0.0013207465 0.0079244785 0.040943142 0.009245225 0.06075434 0.02245269 0.0079244785 -0.11226345 0.0039622393 0.010565972 0.055471353 0.043584634 0.038301647
0000a0 17 f9 cb 77 ce e3 24 c4 1c 32 1d cf 45 3c 6d e8
       0.023773437 -0.015848957 -0.07660329 0.1505651 -0.07264106 -0.04490538 0.040943142 -0.085848525 0.03037717 0.05943359 0.031697914 -0.07132031 0.084527776 0.07264106 0.13735764 -0.038301647
0000b0 ef 35 38 5e 0c 0d 01 30 23 eb 2e 49 54 80 e7 e2
       -0.029056422 0.06339583 0.06735807 0.11754644 0.009245225 0.010565972 -0.005282986 0.0567921 0.039622396 -0.03433941 0.054150607 0.08981076 0.104338974 -0.17565928 -0.039622396 -0.04622613
0000c0 53 e9 1c 0b f7 39 fc e7 1f e6 f3 de d6 7f 37 31
       0.103018224 -0.0369809 0.03037717 0.0079244785 -0.01849045 0.06867882 -0.011886719 -0.039622396 0.03433941 -0.040943142 -0.023773437 -0.051509112 -0.062075086 0.16113107 0.06603733 0.058112845
0000d0 31 02 00 ee df 33 ed c8 bb c2 fe 4d d9 eb 09 18
       0.058112845 -0.0039622393 -0.0066037327 -0.03037717 -0.050188366 0.06075434 -0.031697914 -0.080565535 -0.09773524 -0.08849002 -0.009245225 0.09509375 -0.058112845 -0.03433941 0.005282986 0.025094183
0000e0 3a e8 fa c1 d4 e5 e4 03 04 0e 06 3b ea 18 fa 06
       0.06999956 -0.038301647 -0.014528211 -0.08981076 -0.06471658 -0.042263888 -0.043584634 -0.002641493 -0.0013207465 0.011886719 0.0013207465 0.07132031 -0.035660155 0.025094183 -0.014528211 0.0013207465
0000f0 5e cb da ee 2b 24 f8 5d ee 49 0f d0 20 19 ca 0c
       0.11754644 -0.07660329 -0.0567921 -0.03037717 0.050188366 0.040943142 -0.017169705 0.11622569 -0.03037717 0.08981076 0.013207465 -0.06999956 0.035660155 0.02641493 -0.07792404 0.009245225

model/batch_normalization/batchnorm/mul i1 [256] scale=0.00725333 zero_point=-128
000000 7c 7c 7b 7d 7c 7e 7c 7c 7c 7b 7c 7b 7b 7d 7b 7b
       1.8278393 1.8278393 1.8205858 1.8350925 1.8278393 1.8423458 1.8278393 1.8278393 1.8278393 1.8205858 1.8278393 1.8205858 1.8205858 1.8350925 1.8205858 1.8205858
000010 7d 7a 7c 7e 7d 7c 7c 7c 7d 7a 7b 7b 7b 7c 7c 7b
       1.8350925 1.8133326 1.8278393 1.8423458 1.8350925 1.8278393 1.8278393 1.8278393 1.8350925 1.8133326 1.8205858 1.8205858 1.8205858 1.8278393 1.8278393 1.8205858
000020 7b 7b 7b 7b 7c 7d 7c 7d 7d 7c 7b 7b 7b 7b 7b 7b
       1.8205858 1.8205858 1.8205858 1.8205858 1.8278393 1.8350925 1.8278393 1.8350925 1.8350925 1.8278393 1.8205858 1.8205858 1.8205858 1.8205858 1.8205858 1.8205858
000030 7d 7c 7a 7d 7a 7d 7b 7c 7c 7d 7d 7c 7f 7b 7d 7c
       1.8350925 1.8278393 1.8133326 1.8350925 1.8133326 1.8350925 1.8205858 1.8278393 1.8278393 1.8350925 1.8350925 1.8278393 1.8495992 1.8205858 1.8350925 1.8278393
000040 7d 7f 7b 7d 7d 7c 7d 7c 7b 7b 7b 7b 7c 7c 7c 7c
       1.8350925 1.8495992 1.8205858 1.8350925 1.8350925 1.8278393 1.8350925 1.8278393 1.8205858 1.8205858 1.8205858 1.8205858 1.8278393 1.8278393 1.8278393 1.8278393
000050 7c 7c 7c 7c 7d 7d 7c 7f 7c 7b 7e 7b 7c 7c 7a 7c
       1.8278393 1.8278393 1.8278393 1.8278393 1.8350925 1.8350925 1.8278393 1.8495992 1.8278393 1.8205858 1.8423458 1.8205858 1.8278393 1.8278393 1.8133326 1.8278393
000060 7c 78 7c 7c 7c 7c 7c 7b 7c 7d 7c 7c 7b 7c 7d 7d
       1.8278393 1.7988259 1.8278393 1.8278393 1.8278393 1.8278393 1.8278393 1.8205858 1.8278393 1.8350925 1.8278393 1.8278393 1.8205858 1.8278393 1.8350925 1.8350925
000070 7a 7f 7d 7b 7d 7b 7c 7b 7c 7d 7d 7b 7c 7c 7b 7d
       1.8133326 1.8495992 1.8350925 1.8205858 1.8350925 1.8205858 1.8278393 1.8205858 1.8278393 1.8350925 1.8350925 1.8205858 1.8278393 1.8278393 1.8205858 1.8350925
000080 7b 7d 7b 7d 7d 7c 7d 7b 7b 7b 7d 7b 7c 7d 7d 7a
       1.8205858 1.8350925 1.8205858 1.8350925 1.8350925 1.8278393 1.8350925 1.8205858 1.8205858 1.8205858 1.8350925 1.8205858 1.8278393 1.8350925 1.8350925 1.8133326
000090 7d 7c 7c 7b 7d 7a 7b 7a 7d 7b 7d 7b 7a 7d 7b 7c
       1.8350925 1.8278393 1.8278393 1.8205858 1.8350925 1.8133326 1.8205858 1.8133326 1.8350925 1.8205858 1.8350925 1.8205858 1.8133326 1.8350925 1.8205858 1.8278393
0000a0 7e 7b 7b 7c 7d 7c 7b 7b 7d 7d 7c 7d 7b 7b 7d 7d
       1.8423458 1.8205858 1.8205858 1.8278393 1.8350925 1.8278393 1.8205858 1.8205858 1.8350925 1.8350925 1.8278393 1.8350925 1.8205858 1.8205858 1.8350925 1.8350925
0000b0 7c 7c 7c 7a 7b 7e 7d 7c 7c 7b 7c 7c 7b 7c 7d 7d
       1.8278393 1.8278393 1.8278393 1.8133326 1.8205858 1.8423458 1.8350925 1.8278393 1.8278393 1.8205858 1.8278393 1.8278393 1.8205858 1.8278393 1.8350925 1.8350925
0000c0 7e 7d 7c 7c 7a 7c 7b 7f 7b 7d 7c 7e 7b 7d 7c 7b
       1.8423458 1.8350925 1.8278393 1.8278393 1.8133326 1.8278393 1.8205858 1.8495992 1.8205858 1.8350925 1.8278393 1.8423458 1.8205858 1.8350925 1.8278393 1.8205858
0000d0 7b 7c 7d 7c 7d 7b 7b 7b 7d 7c 7c 7a 7d 7c 7d 7c
       1.8205858 1.8278393 1.8350925 1.8278393 1.8350925 1.8205858 1.8205858 1.8205858 1.8350925 1.8278393 1.8278393 1.8133326 1.8350925 1.8278393 1.8350925 1.8278393
0000e0 7d 7c 7c 7c 7b 7a 7c 7c 7d 7d 7b 7c 7b 7b 7c 7c
       1.8350925 1.8278393 1.8278393 1.8278393 1.8205858 1.8133326 1.8278393 1.8278393 1.8350925 1.8350925 1.8205858 1.8278393 1.8205858 1.8205858 1.8278393 1.8278393
0000f0 7d 7b 7b 7d 7c 7b 7b 7c 7a 7d 7b 7c 7c 7c 7c 7b
       1.8350925 1.8205858 1.8205858 1.8350925 1.8278393 1.8205858 1.8205858 1.8278393 1.8133326 1.8350925 1.8205858 1.8278393 1.8278393 1.8278393 1.8278393 1.8205858

model/lstm/Read_2/ReadVariableOp1 i1 [1024] scale=0.0001319978 zero_point=-29
000000 f9 e4 cb 1a f0 2a f4 f4 d8 cd f2 db d8 0a dc e3
       0.0029039518 0.0001319978 -0.0031679473 0.0072598793 0.0017159714 0.009371844 0.0022439626 0.0022439626 -0.0014519759 -0.0029039518 0.001979967 -0.0010559824 -0.0014519759 0.0051479144 -0.0009239846 0.0
000010 0e b7 f0 f3 06 0e 06 e0 1d bd d9 14 d2 ea fb df
       0.0056759054 -0.0058079036 0.0017159714 0.0021119649 0.004619923 0.0056759054 0.004619923 -0.0003959934 0.0076558725 -0.0050159167 -0.001319978 0.0064678923 -0.0022439626 0.0009239846 0.0031679473 -0.0005279912
000020 14 d1 cc cb f9 16 e7 06 0a db cd cd c9 d4 e5 db
       0.0064678923 -0.0023759604 -0.0030359495 -0.0031679473 0.0029039518 0.006731888 0.0005279912 0.004619923 0.0051479144 -0.0010559824 -0.0029039518 -0.0029039518 -0.0034319428 -0.001979967 0.0002639956 -0.0010559824
000030 fb e1 d6 14 ea 19 e2 ee e9 09 01 0f 43 d4 02 ef
       0.0031679473 -0.0002639956 -0.0017159714 0.0064678923 0.0009239846 0.0071278815 -0.0001319978 0.0014519759 0.0007919868 0.0050159167 0.003959934 0.0058079036 0.012671789 -0.001979967 0.004091932 0.0015839736
000040 f1 45 e2 05 eb e8 02 e7 de e3 d7 c2 f9 ea e1 e6
       0.0018479693 0.012935785 -0.0001319978 0.004487925 0.0010559824 0.000659989 0.004091932 0.0005279912 -0.000659989 0.0 -0.0015839736 -0.0043559275 0.0029039518 0.0009239846 -0.0002639956 0.0003959934
000050 e9 f4 e3 f2 f4 18 f7 26 f0 ca 05 df ec e1 c5 0a
       0.0007919868 0.0022439626 0.0 0.001979967 0.0022439626 0.006995884 0.002639956 0.008843853 0.0017159714 -0.003299945 0.004487925 -0.0005279912 0.0011879802 -0.0002639956 -0.003959934 0.0051479144
000060 e8 80 f8 f7 07 f9 f0 be ec 15 e0 e3 e5 01 1c ee
       0.000659989 -0.013067783 0.0027719538 0.002639956 0.0047519207 0.0029039518 0.0017159714 -0.004883919 0.0011879802 0.00659989 -0.0003959934 0.0 0.0002639956 0.003959934 0.0075238748 0.0014519759
000070 c3 0c 01 d6 17 c7 f1 e8 05 14 1b bc f2 f1 c4 01
       -0.0042239297 0.00541191 0.003959934 -0.0017159714 0.0068638856 -0.0036959385 0.0018479693 0.000659989 0.004487925 0.0064678923 0.007391877 -0.0051479144 0.001979967 0.0018479693 -0.004091932 0.003959934
000080 e9 0e 04 3e 06 0f 00 e0 d8 c4 1d d7 c5 06 3c be
       0.0007919868 0.0056759054 0.0043559275 0.0120118 0.004619923 0.0058079036 0.0038279362 -0.0003959934 -0.0014519759 -0.004091932 0.0076558725 -0.0015839736 -0.003959934 0.004619923 0.0117478045 -0.004883919
000090 53 ce e7 de 2a c4 c8 b4 eb dc 05 c3 b9 1b c7 e3
       0.014783754 -0.0027719538 0.0005279912 -0.000659989 0.009371844 -0.004091932 -0.0035639408 -0.006203897 0.0010559824 -0.0009239846 0.004487925 -0.0042239297 -0.0055439076 0.007391877 -0.0036959385 0.0
0000a0 07 ce ed 0d 22 0d dc f3 01 fd e2 33 c0 de 0c 13
       0.0047519207 -0.0027719538 0.001319978 0.0055439076 0.008315861 0.0055439076 -0.0009239846 0.0021119649 0.003959934 0.0034319428 -0.0001319978 0.010559824 -0.004619923 -0.000659989 0.00541191 0.0063358946
0000b0 ed ec eb d3 de 1f e6 01 0d e8 f5 e9 c5 f5 f6 30
       0.001319978 0.0011879802 0.0010559824 -0.0021119649 -0.000659989 0.007919868 0.0003959934 0.003959934 0.0055439076 0.000659989 0.0023759604 0.0007919868 -0.003959934 0.0023759604 0.0025079583 0.010163831
0000c0 19 3c e9 df eb 0e e7 3f cc 10 f9 1b e5 17 c1 d4
       0.0071278815 0.0117478045 0.0007919868 -0.0005279912 0.0010559824 0.0056759054 0.0005279912 0.012143798 -0.0030359495 0.0059399013 0.0029039518 0.007391877 0.0002639956 0.0068638856 -0.004487925 -0.001979967
0000d0 c7 f4 f9 ee 28 dc d9 f2 f4 d8 e8 bc 00 e6 f4 fc
       -0.0036959385 0.0022439626 0.0029039518 0.0014519759 0.009107849 -0.0009239846 -0.001319978 0.001979967 0.0022439626 -0.0014519759 0.000659989 -0.0051479144 0.0038279362 0.0003959934 0.0022439626 0.003299945
0000e0 d7 eb cf c1 bd b0 fd f7 0b 1c cb ec c2 cb 01 fb
       -0.0015839736 0.0010559824 -0.002639956 -0.004487925 -0.0050159167 -0.006731888 0.0034319428 0.002639956 0.005279912 0.0075238748 -0.0031679473 0.0011879802 -0.0043559275 -0.0031679473 0.003959934 0.0031679473
0000f0 0a d4 e5 01 ed d5 e7 fd a2 12 dc f0 f6 f2 e6 d5
       0.0051479144 -0.001979967 0.0002639956 0.003959934 0.001319978 -0.0018479693 0.0005279912 0.0034319428 -0.008579858 0.006203897 -0.0009239846 0.0017159714 0.0025079583 0.001979967 0.0003959934 -0.0018479693

while/MatMul i1 [1024, 9] scale=0.00071166584 zero_point=0
000000 ee ab 43 b5 39 b8 dd d7 d0 29 37 e5 1e 50 a9 09
       -0.012809985 -0.060491595 0.04768161 -0.05337494 0.040564954 -0.05123994 -0.024908304 -0.029178299 -0.03415996 0.029178299 0.03914162 -0.019214978 0.021349976 0.05693327 -0.06191493 0.0064049927
000010 b4 1a fb c0 93 5d 03 38 d2 09 d2 ad 15 3b 2f e8
       -0.054086603 0.018503312 -0.0035583293 -0.045546614 -0.07757158 0.06618492 0.0021349974 0.039853286 -0.03273663 0.0064049927 -0.03273663 -0.059068266 0.014944983 0.041988283 0.033448294 -0.01707998
000020 53 47 49 bf 0d 58 c8 d9 36 94 0e 0b 60 18 d1 fa
       0.059068266 0.050528273 0.051951606 -0.04625828 0.009251656 0.06262659 -0.039853286 -0.027754968 0.038429957 -0.076859914 0.0099633215 0.007828324 0.06831992 0.01707998 -0.033448294 -0.004269995
000030 b0 0c 53 51 64 f5 c1 d8 53 2f 56 5f d4 fb 41 02
       -0.05693327 0.00853999 0.059068266 0.057644933 0.07116658 -0.007828324 -0.04483495 -0.028466634 0.059068266 0.033448294 0.061203264 0.06760825 -0.031313296 -0.0035583293 0.04625828 0.0014233317
000040 d5 1d 2c 51 ed 37 16 b5 e5 f2 36 02 cb 3c 24 5a
       -0.030601632 0.02063831 0.031313296 0.057644933 -0.013521651 0.03914162 0.015656648 -0.05337494 -0.019214978 -0.0099633215 0.038429957 0.0014233317 -0.03771829 0.04269995 0.02561997 0.06404992
000050 16 ad 38 62 f2 12 c2 cd c8 06 fa 9e fc ce 07 be
       0.015656648 -0.059068266 0.039853286 0.06974325 -0.0099633215 0.012809985 -0.04412328 -0.03629496 -0.039853286 0.004269995 -0.004269995 -0.06974325 -0.0028466634 -0.03558329 0.0049816607 -0.046969946
000060 bf 0f db 38 17 68 4c f4 55 3f 30 af 95 3d fa f4
       -0.04625828 0.010674988 -0.026331635 0.039853286 0.016368315 0.07401325 0.054086603 -0.00853999 0.060491595 0.04483495 0.03415996 -0.057644933 -0.07614824 0.043411616 -0.004269995 -0.00853999
000070 b1 a1 b0 c2 08 1a 27 d1 66 f9 ed 3a 52 1e b5 23
       -0.0562216 -0.06760825 -0.05693327 -0.04412328 0.0056933267 0.018503312 0.027754968 -0.033448294 0.07258992 -0.0049816607 -0.013521651 0.04127662 0.058356598 0.021349976 -0.05337494 0.024908304
000080 3f bc de b0 a2 40 04 2e 08 e0 97 62 a7 4a f4 02
       0.04483495 -0.048393276 -0.024196638 -0.05693327 -0.06689659 0.045546614 0.0028466634 0.03273663 0.0056933267 -0.022773307 -0.07472491 0.06974325 -0.06333826 0.05266327 -0.00853999 0.0014233317
000090 1b a2 4f 52 9e 4a d4 0a f9 4f 41 df a0 01 8f 3b
       0.019214978 -0.06689659 0.0562216 0.058356598 -0.06974325 0.05266327 -0.031313296 0.0071166586 -0.0049816607 0.0562216 0.04625828 -0.023484973 -0.06831992 0.00071166584 -0.08041824 0.041988283
0000a0 0e 93 e2 0b a3 19 bf 00 2c f0 bf 45 20 ad c9 f0
       0.0099633215 -0.07757158 -0.021349976 0.007828324 -0.06618492 0.017791646 -0.04625828 0.0 0.031313296 -0.011386653 -0.04625828 0.049104944 0.022773307 -0.059068266 -0.03914162 -0.011386653
0000b0 b8 d1 00 a3 26 26 4c 5d 1d ce 41 01 29 60 57 13
       -0.05123994 -0.033448294 0.0 -0.06618492 0.027043302 0.027043302 0.054086603 0.06618492 0.02063831 -0.03558329 0.04625828 0.00071166584 0.029178299 0.06831992 0.06191493 0.013521651
0000c0 3b 3a ee 1c fd 72 0a d3 c2 66 6e ad 60 65 3e 0a
       0.041988283 0.04127662 -0.012809985 0.019926643 -0.0021349974 0.08112991 0.0071166586 -0.03202496 -0.04412328 0.07258992 0.07828324 -0.059068266 0.06831992 0.07187825 0.04412328 0.0071166586
0000d0 3a db 2b 9f 12 ec 97 97 92 f2 e3 dc 13 b3 65 0b
       0.04127662 -0.026331635 0.030601632 -0.06903159 0.012809985 -0.014233317 -0.07472491 -0.07472491 -0.07828324 -0.0099633215 -0.02063831 -0.02561997 0.013521651 -0.054798268 0.07187825 0.007828324
0000e0 fb 5d 50 f8 49 17 c9 35 e4 c6 f7 42 2b e2 d5 12
       -0.0035583293 0.06618492 0.05693327 -0.0056933267 0.051951606 0.016368315 -0.03914162 0.03771829 -0.019926643 -0.04127662 -0.0064049927 0.046969946 0.030601632 -0.021349976 -0.030601632 0.012809985
0000f0 bf 46 2f bf 6b 3c f7 4d 6e c0 22 4f cf 30 54 94
       -0.04625828 0.04981661 0.033448294 -0.04625828 0.07614824 0.04269995 -0.0064049927 0.054798268 0.07828324 -0.045546614 0.024196638 0.0562216 -0.034871627 0.03415996 0.05977993 -0.076859914

while/MatMul_11 i1 [1024, 256] scale=0.0012076938 zero_point=0
000000 09 e3 f9 de 42 0e d8 f3 e8 e2 2b eb e6 43 20 fa
       0.010869244 -0.03502312 -0.008453857 -0.04106159 0.079707794 0.016907714 -0.048307754 -0.01570002 -0.028984651 -0.036230814 0.051930834 -0.02536157 -0.03140004 0.08091549 0.038646203 -0.0072461627
000010 f1 09 f9 e1 ea 07 18 00 e7 f7 25 0b 43 d9 fd f4
       -0.018115407 0.010869244 -0.008453857 -0.037438508 -0.026569264 0.008453857 0.028984651 0.0 -0.030192345 -0.010869244 0.04468467 0.013284632 0.08091549 -0.04710006 -0.0036230814 -0.0144923255
000020 29 03 d6 1c 09 07 f6 ee 07 1e dd e2 fa 07 c1 1f
       0.04951545 0.0036230814 -0.05072314 0.03381543 0.010869244 0.008453857 -0.0120769385 -0.021738488 0.008453857 0.036230814 -0.042269286 -0.036230814 -0.0072461627 0.008453857 -0.07608471 0.037438508
000030 d5 dc 07 09 ce e1 f6 14 f2 f0 ce 09 16 f0 01 fa
       -0.051930834 -0.043476976 0.008453857 0.010869244 -0.06038469 -0.037438508 -0.0120769385 0.024153877 -0.016907714 -0.019323101 -0.06038469 0.010869244 0.026569264 -0.019323101 0.0012076938 -0.0072461627
000040 3a f2 33 27 0a e3 10 ef ff 18 e9 c5 00 1d 05 e6
       0.07004624 -0.016907714 0.061592385 0.04710006 0.0120769385 -0.03502312 0.019323101 -0.020530796 -0.0012076938 0.028984651 -0.027776958 -0.07125393 0.0 0.03502312 0.0060384693 -0.03140004
000050 ee 03 0e e7 0b 0b cc c6 10 ff f8 e3 f9 15 f8 c9
       -0.021738488 0.0036230814 0.016907714 -0.030192345 0.013284632 0.013284632 -0.06280008 -0.07004624 0.019323101 -0.0012076938 -0.009661551 -0.03502312 -0.008453857 0.02536157 -0.009661551 -0.06642316
000060 eb fc e7 2a cb ed d8 26 d8 23 cc d9 17 ed fe de
       -0.02536157 -0.0048307753 -0.030192345 0.05072314 -0.064007774 -0.022946183 -0.048307754 0.045892365 -0.048307754 0.042269286 -0.06280008 -0.04710006 0.027776958 -0.022946183 -0.0024153877 -0.04106159
000070 e1 2d 00 50 e4 16 e1 16 17 e8 25 ed e1 01 eb 05
       -0.037438508 0.054346222 0.0 0.09661551 -0.03381543 0.026569264 -0.037438508 0.026569264 0.027776958 -0.028984651 0.04468467 -0.022946183 -0.037438508 0.0012076938 -0.02536157 0.0060384693
000080 f0 0f 07 ec fc 12 ff dd 27 0a e9 14 eb 13 ef 20
       -0.019323101 0.018115407 0.008453857 -0.024153877 -0.0048307753 0.021738488 -0.0012076938 -0.042269286 0.04710006 0.0120769385 -0.027776958 0.024153877 -0.02536157 0.022946183 -0.020530796 0.038646203
000090 04 db d3 f9 f4 22 28 0c e5 0b 2b d8 f5 2b ff d4
       0.0048307753 -0.04468467 -0.054346222 -0.008453857 -0.0144923255 0.04106159 0.048307754 0.0144923255 -0.032607734 0.013284632 0.051930834 -0.048307754 -0.013284632 0.051930834 -0.0012076938 -0.053138528
0000a0 f1 29 01 c3 0f e5 01 02 0f f1 f1 d3 ce ef 23 ec
       -0.018115407 0.04951545 0.0012076938 -0.07366932 0.018115407 -0.032607734 0.0012076938 0.0024153877 0.018115407 -0.018115407 -0.018115407 -0.054346222 -0.06038469 -0.020530796 0.042269286 -0.024153877
0000b0 eb 0a d9 e9 e8 16 1e d0 34 e7 14 ff e5 ed f9 28
       -0.02536157 0.0120769385 -0.04710006 -0.027776958 -0.028984651 0.026569264 0.036230814 -0.057969302 0.06280008 -0.030192345 0.024153877 -0.0012076938 -0.032607734 -0.022946183 -0.008453857 0.048307754
0000c0 f3 13 06 18 eb 1a ef df 10 0c 15 ea e2 f2 fe f7
       -0.01570002 0.022946183 0.0072461627 0.028984651 -0.02536157 0.03140004 -0.020530796 -0.039853897 0.019323101 0.0144923255 0.02536157 -0.026569264 -0.036230814 -0.016907714 -0.0024153877 -0.010869244
0000d0 f7 1d e1 df 01 f8 22 0b 05 d6 da e4 0b 13 32 20
       -0.010869244 0.03502312 -0.037438508 -0.039853897 0.0012076938 -0.009661551 0.04106159 0.013284632 0.0060384693 -0.05072314 -0.045892365 -0.03381543 0.013284632 0.022946183 0.06038469 0.038646203
0000e0 bc fa 04 f9 ea c9 07 ef 45 18 f9 12 0b f0 1f 1b
       -0.08212318 -0.0072461627 0.0048307753 -0.008453857 -0.026569264 -0.06642316 0.008453857 -0.020530796 0.08333088 0.028984651 -0.008453857 0.021738488 0.013284632 -0.019323101 0.037438508 0.032607734
0000f0 e5 0c 0d 05 e9 10 13 f2 13 f3 d9 17 c4 f9 03 fe
       -0.032607734 0.0144923255 0.01570002 0.0060384693 -0.027776958 0.019323101 0.022946183 -0.016907714 0.022946183 -0.01570002 -0.04710006 0.027776958 -0.07246163 -0.008453857 0.0036230814 -0.0024153877

model/lstm_1/Read_2/ReadVariableOp1 i1 [1024] scale=0.00014292811 zero_point=-12
000000 f3 29 08 e3 c4 c3 dc f7 e8 dd fd 1e fb c6 b3 ef
       -0.00014292811 0.0075751897 0.0028585622 -0.002429778 -0.0068605496 -0.0070034773 -0.0034302748 0.00042878435 -0.0017151374 -0.0032873466 0.001286353 0.0060029808 0.0010004968 -0.006574693 -0.009290327 -0.00071464054
000010 c2 0f 10 04 f5 04 0b 82 26 f7 eb 14 bf fa 02 1c
       -0.0071464055 0.003859059 0.004001987 0.0022868498 0.00014292811 0.0022868498 0.0032873466 -0.016293805 0.0071464055 0.00042878435 -0.001286353 0.0045736996 -0.0075751897 0.0008575687 0.0020009936 0.0057171243
000020 19 05 f7 cb e1 0c c5 10 d6 01 ed ec fe b3 90 de
       0.00528834 0.002429778 0.00042878435 -0.0058600525 -0.0027156342 0.0034302748 -0.0067176213 0.004001987 -0.004287843 0.0018580655 -0.0010004968 -0.0011434249 0.0014292811 -0.009290327 -0.014292811 -0.0031444184
000030 d5 cb 1e bf b7 d1 fc cd c4 0e f6 dc 44 aa de f7
       -0.0044307713 -0.0058600525 0.0060029808 -0.0075751897 -0.0087186145 -0.0050024837 0.0011434249 -0.005574196 -0.0068605496 0.003716131 0.00028585622 -0.0034302748 0.011434249 -0.01057668 -0.0031444184 0.00042878435
000040 10 c1 04 17 ec 06 c7 d7 0e d7 c2 eb f0 ca f4 b0
       0.004001987 -0.0072893337 0.0022868498 0.0050024837 -0.0011434249 0.002572706 -0.006431765 -0.0041449154 0.003716131 -0.0041449154 -0.0071464055 -0.001286353 -0.00057171244 -0.0060029808 0.0 -0.009719112
000050 de ce d5 25 1a fe a9 05 17 1a ee c1 df d3 de ef
       -0.0031444184 -0.0054312684 -0.0044307713 0.0070034773 0.0054312684 0.0014292811 -0.0107196085 0.002429778 0.0050024837 0.0054312684 -0.0008575687 -0.0072893337 -0.0030014904 -0.0047166278 -0.0031444184 -0.00071464054
000060 ed fe 97 e0 d5 b0 de f6 da d4 ff 03 da 08 e8 ed
       -0.0010004968 0.0014292811 -0.0132923145 -0.0028585622 -0.0044307713 -0.009719112 -0.0031444184 0.00028585622 -0.003716131 -0.0045736996 0.0015722092 0.0021439216 -0.003716131 0.0028585622 -0.0017151374 -0.0010004968
000070 9b e2 11 16 de 0e 3e f8 00 f2 cc c8 18 f8 08 cd
       -0.012720602 -0.002572706 0.0041449154 0.004859556 -0.0031444184 0.003716131 0.01057668 0.00057171244 0.0017151374 -0.00028585622 -0.0057171243 -0.0062888367 0.005145412 0.00057171244 0.0028585622 -0.005574196
000080 1d 0f d0 e0 d2 ac d7 ac 15 e3 ed 0c e4 08 db 21
       0.0058600525 0.003859059 -0.005145412 -0.0028585622 -0.004859556 -0.010290824 -0.0041449154 -0.010290824 0.0047166278 -0.002429778 -0.0010004968 0.0034302748 -0.0022868498 0.0028585622 -0.0035732028 0.006431765
000090 03 f0 e4 4c f1 e4 14 fc f4 07 0a da d5 f3 e7 25
       0.0021439216 -0.00057171244 -0.0022868498 0.012577673 -0.00042878435 -0.0022868498 0.0045736996 0.0011434249 0.0 0.0027156342 0.0031444184 -0.003716131 -0.0044307713 -0.00014292811 -0.0018580655 0.0070034773
0000a0 cb e1 2d f4 0e 1a b7 03 fa c9 e1 fa 49 01 e1 dc
       -0.0058600525 -0.0027156342 0.008146903 0.0 0.003716131 0.0054312684 -0.0087186145 0.0021439216 0.0008575687 -0.006145909 -0.0027156342 0.0008575687 0.01214889 0.0018580655 -0.0027156342 -0.0034302748
0000b0 b8 ae d4 bf 1d c3 c6 da 31 f0 00 02 0a d3 04 d7
       -0.008575686 -0.010004967 -0.0045736996 -0.0075751897 0.0058600525 -0.0070034773 -0.006574693 -0.003716131 0.0087186145 -0.00057171244 0.0017151374 0.0020009936 0.0031444184 -0.0047166278 0.0022868498 -0.0041449154
0000c0 cc f4 d9 fc af 05 11 c1 f9 c9 1a eb 9f e8 41 03
       -0.0057171243 0.0 -0.003859059 0.0011434249 -0.009862039 0.002429778 0.0041449154 -0.0072893337 0.00071464054 -0.006145909 0.0054312684 -0.001286353 -0.01214889 -0.0017151374 0.011005465 0.0021439216
0000d0 f7 4d e0 e8 25 12 fe 3a 10 db 10 f1 06 e7 22 b7
       0.00042878435 0.012720602 -0.0028585622 -0.0017151374 0.0070034773 0.004287843 0.0014292811 0.010004967 0.004001987 -0.0035732028 0.004001987 -0.00042878435 0.002572706 -0.0018580655 0.006574693 -0.0087186145
0000e0 a6 b2 d9 00 be 4e cc dc ff 08 c0 f9 e8 e7 c5 aa
       -0.011148392 -0.0094332555 -0.003859059 0.0017151374 -0.007718118 0.01286353 -0.0057171243 -0.0034302748 0.0015722092 0.0028585622 -0.007432262 0.00071464054 -0.0017151374 -0.0018580655 -0.0067176213 -0.01057668
0000f0 dc e8 e9 0f e2 12 e3 d6 3c ed de cb 12 03 eb a8
       -0.0034302748 -0.0017151374 -0.0015722092 0.003859059 -0.002572706 0.004287843 -0.002429778 -0.004287843 0.010290824 -0.0010004968 -0.0031444184 -0.0058600525 0.004287843 0.0021439216 -0.001286353 -0.010862537

while/MatMul2 i1 [1024, 256] scale=0.00070291257 zero_point=0
000000 ac e6 c7 d9 20 a1 c2 23 de 61 31 b4 04 02 a2 97
       -0.059044655 -0.018275727 -0.040066015 -0.02741359 0.022493202 -0.06677669 -0.04358058 0.02460194 -0.023899028 0.06818252 0.034442715 -0.053421356 0.0028116503 0.0014058251 -0.06607378 -0.07380582
000010 21 4b b1 3e 34 95 ab ef a8 da 1c 1e dd 52 59 fc
       0.023196114 0.052718442 -0.055530094 0.04358058 0.036551453 -0.075211644 -0.05974757 -0.011949514 -0.061856307 -0.026710678 0.019681552 0.021087376 -0.02460194 0.05763883 0.06255922 -0.0028116503
000020 14 fd e4 33 db f1 ba 0c a3 20 c0 ae 15 4d 1c b5
       0.014058251 -0.0021087378 -0.019681552 0.03584854 -0.026007766 -0.010543688 -0.04920388 0.008434951 -0.06537087 0.022493202 -0.044986404 -0.05763883 0.014761164 0.05412427 0.019681552 -0.052718442
000030 d1 0d 2c b7 30 10 4c 40 01 c2 48 a5 2b ec fd 42
       -0.03303689 0.009137863 0.030928154 -0.051312618 0.033739805 0.011246601 0.053421356 0.044986404 0.00070291257 -0.04358058 0.050609704 -0.063965045 0.03022524 -0.014058251 -0.0021087378 0.04639223
000040 2c 01 e6 c8 a0 36 49 d4 1e 49 c1 05 1d 57 c4 d2
       0.030928154 0.00070291257 -0.018275727 -0.039363105 -0.06747961 0.037957277 0.051312618 -0.030928154 0.021087376 0.051312618 -0.04428349 0.0035145627 0.020384464 0.061153393 -0.042174753 -0.032333978
000050 41 1b de b1 db 37 53 24 3e 19 1a 3f 4b 1b f7 ee
       0.04568932 0.018978639 -0.023899028 -0.055530094 -0.026007766 0.03866019 0.05834174 0.025304852 0.04358058 0.017572815 0.018275727 0.04428349 0.052718442 0.018978639 -0.006326213 -0.012652426
000060 a2 2e d3 50 d2 d5 2f 43 b0 0d bc 2c cc 07 c8 40
       -0.06607378 0.032333978 -0.031631067 0.056233004 -0.032333978 -0.03022524 0.03303689 0.047095142 -0.056233004 0.009137863 -0.047798056 0.030928154 -0.036551453 0.004920388 -0.039363105 0.044986404
000070 da 13 d3 0f 20 e2 41 da 51 b8 c1 f2 11 2a c8 e3
       -0.026710678 0.013355339 -0.031631067 0.010543688 0.022493202 -0.021087376 0.04568932 -0.026710678 0.056935918 -0.050609704 -0.04428349 -0.009840776 0.011949514 0.029522328 -0.039363105 -0.020384464
000080 2c 5b c0 f6 fd 1a d7 c5 d5 3e e0 4d df 06 3b 45
       0.030928154 0.063965045 -0.044986404 -0.0070291255 -0.0021087378 0.018275727 -0.028819416 -0.041471843 -0.03022524 0.04358058 -0.022493202 0.05412427 -0.023196114 0.0042174757 0.041471843 0.048500966
000090 fe eb cf 24 0f 33 b0 3a 1a 38 44 3e 58 35 a5 a5
       -0.0014058251 -0.014761164 -0.034442715 0.025304852 0.010543688 0.03584854 -0.056233004 0.04076893 0.018275727 0.039363105 0.047798056 0.04358058 0.061856307 0.037254367 -0.063965045 -0.063965045
0000a0 41 9d 5d dd ab 11 a4 fe 23 19 da 04 00 43 d8 ed
       0.04568932 -0.06958834 0.06537087 -0.02460194 -0.05974757 0.011949514 -0.064667955 -0.0014058251 0.02460194 0.017572815 -0.026710678 0.0028116503 0.0 0.047095142 -0.028116502 -0.013355339
0000b0 f0 b3 4c 3c 4a 1e 50 50 42 26 c4 e7 3c cc e1 42
       -0.011246601 -0.05412427 0.053421356 0.042174753 0.05201553 0.021087376 0.056233004 0.056233004 0.04639223 0.026710678 -0.042174753 -0.017572815 0.042174753 -0.036551453 -0.02179029 0.04639223
0000c0 cd e2 e9 e2 a8 64 35 cc 0b 6a b5 0a b7 38 2c fa
       -0.03584854 -0.021087376 -0.016166989 -0.021087376 -0.061856307 0.07029126 0.037254367 -0.036551453 0.0077320384 0.074508734 -0.052718442 0.0070291255 -0.051312618 0.039363105 0.030928154 -0.0042174757
0000d0 39 58 a9 05 24 18 59 a8 b9 23 18 64 e9 ad 5f d2
       0.040066015 0.061856307 -0.061153393 0.0035145627 0.025304852 0.016869903 0.06255922 -0.061856307 -0.049906794 0.02460194 0.016869903 0.07029126 -0.016166989 -0.05834174 0.06677669 -0.032333978
0000e0 16 be 8f ac 3a 0d 0d 5b a6 06 3a 42 47 de a6 57
       0.015464077 -0.04639223 -0.07942912 -0.059044655 0.04076893 0.009137863 0.009137863 0.063965045 -0.063262135 0.0042174757 0.04076893 0.04639223 0.049906794 -0.023899028 -0.063262135 0.061153393
0000f0 ae a2 db ec f1 51 11 b9 0b d6 d9 1a 36 ec f2 c3
       -0.05763883 -0.06607378 -0.026007766 -0.014058251 -0.010543688 0.056935918 0.011949514 -0.049906794 0.0077320384 -0.029522328 -0.02741359 0.018275727 0.037957277 -0.014058251 -0.009840776 -0.042877667

while/MatMul_14 i1 [1024, 256] scale=0.0011968524 zero_point=0
000000 1a 0e 17 ee 18 26 f8 ff e2 b4 06 cd 15 0e 00 e5
       0.031118162 0.016755935 0.027527606 -0.021543343 0.028724458 0.045480393 -0.009574819 -0.0011968524 -0.035905574 -0.090960786 0.0071811145 -0.061039474 0.0251339 0.016755935 0.0 -0.032315016
000010 ef e8 00 3a ca fd 14 c4 07 12 ec f2 18 e4 08 07
       -0.02034649 -0.028724458 0.0 0.06941744 -0.06463003 -0.0035905573 0.023937048 -0.07181115 0.008377967 0.021543343 -0.023937048 -0.016755935 0.028724458 -0.03351187 0.009574819 0.008377967
000020 ea 1a 1e f6 01 f1 11 de ed 09 34 02 09 2d ca 06
       -0.026330754 0.031118162 0.035905574 -0.011968524 0.0011968524 -0.017952787 0.02034649 -0.04069298 -0.022740196 0.010771671 0.062236324 0.0023937048 0.010771671 0.05385836 -0.06463003 0.0071811145
000030 e8 24 f0 f1 c6 01 0a 0b f4 01 fc eb e4 2c 06 00
       -0.028724458 0.043086685 -0.019149639 -0.017952787 -0.06941744 0.0011968524 0.011968524 0.013165377 -0.014362229 0.0011968524 -0.0047874097 -0.0251339 -0.03351187 0.05266151 0.0071811145 0.0
000040 16 26 f3 f8 0f 05 f7 12 15 1c fb e5 09 02 cf f5
       0.026330754 0.045480393 -0.015559081 -0.009574819 0.017952787 0.005984262 -0.010771671 0.021543343 0.0251339 0.03351187 -0.005984262 -0.032315016 0.010771671 0.0023937048 -0.05864577 -0.013165377
000050 f7 d3 f6 e9 e4 1e 21 31 a6 e4 f8 f3 fd 07 02 1e
       -0.010771671 -0.05385836 -0.011968524 -0.027527606 -0.03351187 0.035905574 0.03949613 0.05864577 -0.10771672 -0.03351187 -0.009574819 -0.015559081 -0.0035905573 0.008377967 0.0023937048 0.035905574
000060 02 3c de 0d 0e e1 0d f0 e3 eb ef 20 05 02 e7 12
       0.0023937048 0.07181115 -0.04069298 0.015559081 0.016755935 -0.037102424 0.015559081 -0.019149639 -0.03470872 -0.0251339 -0.02034649 0.038299277 0.005984262 0.0023937048 -0.02992131 0.021543343
000070 28 08 0b ef 04 fe 13 f2 31 d3 f3 fc e0 0b 1e 14
       0.047874097 0.009574819 0.013165377 -0.02034649 0.0047874097 -0.0023937048 0.022740196 -0.016755935 0.05864577 -0.05385836 -0.015559081 -0.0047874097 -0.038299277 0.013165377 0.035905574 0.023937048
000080 08 f7 e5 fa ff 00 0d c2 21 c7 06 eb 09 f5 09 ed
       0.009574819 -0.010771671 -0.032315016 -0.0071811145 -0.0011968524 0.0 0.015559081 -0.07420485 0.03949613 -0.068220586 0.0071811145 -0.0251339 0.010771671 -0.013165377 0.010771671 -0.022740196
000090 0e 18 19 1a 07 e6 e4 df 05 eb 4b e7 f3 f6 1d bb
       0.016755935 0.028724458 0.02992131 0.031118162 0.008377967 -0.031118162 -0.03351187 -0.03949613 0.005984262 -0.0251339 0.08976393 -0.02992131 -0.015559081 -0.011968524 0.03470872 -0.08258282
0000a0 31 07 f0 f9 fb 07 31 e1 0e f1 18 05 05 e9 27 f9
       0.05864577 0.008377967 -0.019149639 -0.008377967 -0.005984262 0.008377967 0.05864577 -0.037102424 0.016755935 -0.017952787 0.028724458 0.005984262 0.005984262 -0.027527606 0.046677243 -0.008377967
0000b0 1d 20 11 f7 04 1b 1a 12 00 f7 f6 24 05 d8 15 11
       0.03470872 0.038299277 0.02034649 -0.010771671 0.0047874097 0.032315016 0.031118162 0.021543343 0.0 -0.010771671 -0.011968524 0.043086685 0.005984262 -0.047874097 0.0251339 0.02034649
0000c0 f0 0b f5 f5 12 02 c8 ec f9 0b 1d cb d5 e8 eb f7
       -0.019149639 0.013165377 -0.013165377 -0.013165377 0.021543343 0.0023937048 -0.06702374 -0.023937048 -0.008377967 0.013165377 0.03470872 -0.06343318 -0.051464655 -0.028724458 -0.0251339 -0.010771671
0000d0 08 d5 28 12 0c bb f8 f6 fa f5 0a d7 05 0f e3 f4
       0.009574819 -0.051464655 0.047874097 0.021543343 0.014362229 -0.08258282 -0.009574819 -0.011968524 -0.0071811145 -0.013165377 0.011968524 -0.04907095 0.005984262 0.017952787 -0.03470872 -0.014362229
0000e0 0c 04 1a 16 fa 03 0a e4 06 2f 0d 0a f0 da cb ed
       0.014362229 0.0047874097 0.031118162 0.026330754 -0.0071811145 0.0035905573 0.011968524 -0.03351187 0.0071811145 0.056252062 0.015559081 0.011968524 -0.019149639 -0.045480393 -0.06343318 -0.022740196
0000f0 e2 03 19 f2 ef e2 f8 f4 03 19 fc 2e f7 f1 ea 0a
       -0.035905574 0.0035905573 0.02992131 -0.016755935 -0.02034649 -0.035905574 -0.009574819 -0.014362229 0.0035905573 0.02992131 -0.0047874097 0.055055212 -0.010771671 -0.017952787 -0.026330754 0.011968524
